data/vaeTrained.pt (torch, 533611 bytes, 15 tensors)

weight f4 [250, 7]
-1.3220206 -0.3812321 -0.060056597 0.0087966025 -0.18938276 0.24865508 -0.8294064 -0.1966209
-0.042562667 -0.3015812 0.07721342 -0.09612761 0.06581589 0.03036373 -0.2206085 0.09096884
-0.19113727 0.07999869 -0.23213522 0.1501614 0.08900474 -0.1488586 -0.19150615 0.10870214
0.3523072 0.1774365 -0.072055615 -0.033257235 0.10754475 -0.41062856 0.029523766 -0.24665883
0.120480925 -0.24119386 -0.014048232 0.110417075 0.24093907 -0.15757391 0.26817137 -0.3705453
-0.2135021 -0.53879225 0.009775518 0.11410702 -0.16871336 0.15260713 -0.07381901 -0.27469364
0.25459236 0.18060938 0.1324521 0.2417058 0.07073825 0.142541 0.26296738 -0.13020065
-0.54249746 -0.18777135 0.06354084 0.097432554 0.032779176 0.3041948 0.4258941 -0.27946383
-0.11354256 -0.088916 0.23003432 -0.13711762 -0.15813449 -0.06076929 -0.096143216 -0.09306097
-0.36981598 0.3367615 0.20116153 -0.17884773 -0.23582439 0.013149232 0.21535423 -0.27124292
-0.14274968 0.15809342 -0.24379262 -0.042086363 -0.29857334 0.3292804 0.21451944 -0.35092458
-0.20253147 0.09939794 0.03178403 0.10066931 -0.3265865 -0.18723665 0.19999048 -0.2673281
-0.13407056 0.18627615 0.15602866 -0.02407374 0.08151742 0.12820214 -0.07991949 -0.17775011
0.2539674 0.36844763 0.17507365 -0.1652215 -0.3287701 -0.37305695 0.0026147068 -0.14501758
-0.110955045 -0.07158142 0.41088018 0.34865132 -0.053830393 -0.14602378 0.22639334 -0.030160397
-0.359637 0.12320414 0.36184594 -0.29960218 -0.08163041 0.08196738 -0.32579848 -0.55336046
0.50668806 -0.11465001 0.32819292 -0.0068190373 0.16131686 -0.32146674 -0.17089191 0.22054616
0.09418445 -0.1685224 -0.0015320567 0.30429924 -0.33117145 0.24278477 -0.11359349 -0.07689148
0.17985812 -0.3139972 -0.057098955 0.25936028 0.033404574 -0.23901185 -0.1873781 0.19575529
-0.03820635 0.15824732 -0.29169947 0.039480444 0.026284741 0.025594424 0.32320738 0.04997231
0.1807504 0.1659604 0.15885255 -0.06574392 -0.33358547 -0.31927788 -0.23540595 -0.24471048
0.10288046 -0.0010306678 -0.14828035 -0.3326606 0.3812735 0.19566631 0.2618055 0.35686892
-0.23650476 -0.15896986 -0.19744414 0.016625103 -0.41267034 0.39417177 -0.013938374 0.24700156
-0.23461935 -0.023398362 0.009824715 0.062149756 0.41236797 -0.17048691 0.3016362 -0.22984225
0.103291884 -0.10519978 0.24833977 0.41197333 0.045867532 -0.13962032 -0.11476668 0.24957941
-0.1070468 0.15163217 -0.14520134 0.30335274 0.3580925 0.24892372 0.19923034 0.13664973
-0.20024773 -0.01554818 0.11143442 -0.11747244 0.049046215 0.20265414 -0.36890697 -0.36272973
-0.24486998 0.04610622 -0.0700587 0.08144832 -0.089880496 -0.24742988 0.050182313 0.25599042
-0.28872412 0.285478 0.034753267 0.33766672 -0.38620827 -0.4425902 0.04796296 -0.4394395
-0.392788 0.09882986 0.08486989 -0.39961138 0.32293674 -0.0018580686 0.28060815 -0.22180706
-0.35939494 -0.2505584 -0.05859503 -0.37748235 -0.025752336 -0.5755182 -0.27226347 0.07313956
0.10444129 -0.26515386 0.18879245 -0.47472602 0.19148795 0.314457 -0.16971333 -0.0022557483
00000000: f937 a9bf db30 c3be e8fd 75bd a01f 103c
00000010: 8eed 41be 709f 7e3e fa53 54bf fd56 49be
00000020: 3156 2ebd da68 9abe 1222 9e3d 8dde c4bd
00000030: 7bca 863d 5bbd f83c 32e7 61be df4d ba3d
00000040: 7db9 43be 5ad6 a33d dbb4 6dbe e9c3 193e
00000050: 1e48 b63d 646e 18be 301a 44be 3a9f de3d
00000060: 9c61 b43e eab1 353e e591 93bd bd38 08bd
00000070: 6c40 dc3d e83d d2be d3db f13c 2294 7cbe
00000080: b4be f63d 86fb 76be 8e2a 66bc 5922 e23d
00000090: bbb8 763e 0e5b 21be c24d 893e 1db8 bdbe
000000a0: 4ba0 5abe 4aee 09bf 7f29 203c f1b0 e93d
000000b0: 32c3 2cbe 0b45 1c3e 6c2e 97bd a5a4 8cbe
000000c0: ee59 823e aaf1 383e 86a1 073e ba81 773e
000000d0: 37df 903d 45f6 113e a9a3 863e 5253 05be
000000e0: 1de1 0abf 2247 40be b321 823d b88a c73d
000000f0: 7543 063d 6cbf 9b3e cb0e da3e e215 8fbe
00000100: 0089 e8bd 9819 b6bd 1e8e 6b3e 9068 0cbe
00000110: 02ee 21be 38e9 78bd bce6 c4bd c096 bebd
00000120: 8558 bdbe 016c ac3e 4afd 4d3e dc23 37be
00000130: f37b 71be e06f 573c d285 5c3e 5ae0 8abe
00000140: f92c 12be 3ee3 213e c6a4 79be c062 2cbd
00000150: 9bde 98be 7197 a83e fcaa 5b3e 63ac b3be
00000160: 6964 4fbe 2691 cb3d f92f 023d b62b ce3d
00000170: 5936 a7be f7ba 3fbe 4eca 4c3e 3bdf 88be
00000180: cb49 09be 2dbf 3e3e fac5 1f3e 4b36 c5bc
00000190: 9bf2 a63d 6c47 033e d4ac a3bd 2004 36be
000001a0: 0408 823e 2ba5 bc3e 8246 333e d32f 29be
000001b0: 8e54 a8be 5201 bfbe 805b 2b3b 7d7f 14be
000001c0: 663c e3bd 4899 92bd e35e d23e 6d82 b23e
000001d0: 427d 5cbd 4287 15be a8d3 673e f012 f7bc
000001e0: 5722 b8be 7452 fc3d df43 b93e 7565 99be
000001f0: d82d a7bd 84de a73d 0fcf a6be 08a9 0dbf
00000200: 4fb6 013f a0cd eabd e708 a83e 3b72 dfbb
00000210: 3f30 253e 4a97 a4be 4afe 2ebe dad6 613e
00000220: c7e3 c03d 2391 2cbe 4bcf c8ba 1ccd 9b3e
00000230: 4e8f a9be 929c 783e b4a3 e8bd 4879 9dbd
00000240: ba2c 383e 3ec4 a0be 98e0 69bd dfca 843e
00000250: 3cd3 083d 86bf 74be 0be0 3fbe 1374 483e
00000260: 437e 1cbd 960b 223e a259 95be 3fb6 213d
00000270: 1953 d73c 66ab d13c 707b a53e c4af 4c3d
00000280: a216 393e 86f1 293e 3eaa 223e c0a4 86bd
00000290: b7cb aabe 6478 a3be 420e 71be 6295 7abe
000002a0: feb2 d23d 7917 87ba ced6 17be 7d52 aabe
000002b0: 4836 c33e c05c 483e 5f0b 863e 86b7 b63e
000002c0: 4e2e 72be ffc8 22be cc2e 4abe 5e31 883c
000002d0: 8749 d3be e2d0 c93e c75d 64bc faed 7c3e
000002e0: 0e40 70be ecad bfbc d7f7 203c be90 7e3d
000002f0: e521 d33e 1f94 2ebe 0f70 9a3e c45b 6bbe
00000300: b28a d33d fb72 d7bd c84c 7e3e 2bee d23e
00000310: 98df 3b3d a1f8 0ebe cb0a ebbd bf91 7f3e
00000320: 5a3b dbbd 7745 1b3e a9af 14be 0d51 9b3e
00000330: e657 b73e dce5 7e3e 0a03 4c3e e8ed 0b3e
00000340: be0d 4dbe cbbd 7ebc bb37 e43d 6495 f0bd
00000350: afe4 483d 9184 4f3e 60e1 bcbe b6b7 b9be
00000360: 32bf 7abe e0d9 3c3d f07a 8fbd 60ce a63d
00000370: 4413 b8bd 425e 7dbe f88b 4d3d 2d11 833e
00000380: a6d3 93be 2c2a 923e 7159 0e3d a7e2 ac3e
00000390: 17bd c5be 2f9b e2be cf74 443d 37fe e0be
000003a0: 821b c9be 4f67 ca3d 44d0 ad3d dd99 ccbe
000003b0: f757 a53e 708a f3ba dfab 8f3e 6421 63be
000003c0: 9d02 b8be 3149 80be 5801 70bd 5e45 c1be
000003d0: 90f6 d2bc 2955 13bf 1e66 8bbe 32ca 953d
000003e0: 51e5 d53d 3fc2 87be cf52 413e 4a0f f3be
000003f0: 6b15 443e 8200 a13e 55c9 2dbe 2dd5 13bb

bias f4 [250]
0.12577613 0.14093038 0.31238914 -0.090287335 0.26386848 0.20376705 0.09849421 -0.38179344
-0.07568249 -0.08093241 0.00032743812 -0.330456 0.29623604 0.27255562 -0.012682957 -0.30636442
-0.31046697 -0.37516773 -0.0687059 0.19560972 -0.28784427 0.10079828 -0.15772794 -0.03653598
-0.1969302 0.09677512 -0.15341271 -0.14401995 0.017146114 -0.3255126 0.115795605 -0.27790955
0.22628392 0.28098336 -0.026397973 0.032397505 -0.042728994 0.12958984 -0.054991987 -0.056729697
-0.007409116 -0.24588303 0.050911017 -0.32464167 -0.13408357 0.18532372 -0.01955504 -0.11027925
0.036887757 0.30749786 0.17060864 -0.13307275 0.31243828 -0.04694169 0.007666056 0.08567927
-0.054216206 0.08276589 -0.012374011 0.22945641 0.14282072 0.0270054 -0.0346166 -0.30095398
-0.25834864 0.09706629 0.25405565 -0.03462108 0.09973586 -0.21205974 0.09037747 -0.29474476
-0.20137037 -0.3173516 0.2553106 -0.24915457 -0.21927951 0.2003605 0.17486517 0.13128152
0.3258812 -0.26636896 0.096247524 -0.23792633 -0.24859037 -0.21015644 -0.1420091 -0.05218786
-0.056067456 -0.016902506 -0.3634712 0.28848776 0.1986645 0.19562139 0.4054413 -0.19614829
-0.034927905 -0.32191733 0.08397894 -0.27592796 -0.35025436 -0.0767403 -0.17385502 -0.31224617
0.061238095 -0.047743887 0.2065097 -0.067359775 0.07431679 0.29449004 -0.11581919 0.24410924
0.39498428 -0.029100616 -0.35190746 0.20890573 -0.18492982 -0.31793576 -0.34391263 0.29945552
0.33371478 -0.17555627 -0.21871115 0.010092046 0.008550503 -0.056590434 -0.08288833 -0.075257756
-0.26996422 0.030510943 0.04820269 0.22989666 -0.07426688 0.18786651 0.27519384 -0.36482322
-0.06271038 0.39098468 -0.12888187 0.033404574 -0.064773634 -0.028748684 0.26875925 -0.08591023
-0.29504788 0.10133543 -0.15236968 0.009487686 0.18415974 -0.13657352 -0.29049903 -0.49855712
0.115477145 -0.17301545 0.11587757 -0.13224266 0.30043414 0.2119344 -0.05700545 -0.22846709
0.28211248 -0.0029303213 -0.24045251 -0.31033972 0.16465096 -0.33927268 0.15124145 -0.36047357
-0.34650928 0.24283545 -0.121429265 0.16602053 -0.118541785 0.11970589 -0.081514 0.35877955
-0.31656817 -0.13089848 -0.03552415 -0.31873566 0.029641407 -0.2738986 0.014847778 0.036303323
-0.3494721 -0.33675942 -0.3702863 0.0647473 0.040627282 -0.095564194 0.32454643 -0.3460154
0.1443566 0.20481403 -0.33638567 -0.071028985 0.1516406 0.16911283 -0.048236832 -0.09319689
0.19670118 -0.095514506 -0.36961868 -0.104643375 0.11204454 0.08893472 -0.04856103 0.1776796
-0.15563872 -0.263235 0.17323296 -0.2899927 -0.19517817 0.29501516 -0.25598052 -0.24336617
0.18831699 0.14556463 -0.3605769 -0.12435797 -0.37144434 -0.20398599 -0.27015555 -0.15665041
-0.20514596 -0.19982152 0.215526 -0.23920453 -0.1563469 -0.011946522 0.08084052 0.16731742
-0.10708356 -0.12293239 0.019835774 -0.03866308 0.08907919 0.032264426 0.2775033 -0.22810206
0.19079632 -0.18533807 0.18299021 0.17040317 0.07322834 -0.17308468 0.013090627 0.23814951
-0.24581684 -0.0914846
00000000: 75cb 003e 0e50 103e 78f1 9f3e 91e8 b8bd
00000010: c519 873e 4fa8 503e 55b7 c93d 6e7a c3be
00000020: 6cff 9abd e4bf a5bd 00ac ab39 8731 a9be
00000030: 40ac 973e 698c 8b3e 2dcc 4fbc ccdb 9cbe
00000040: 87f5 9ebe fc15 c0be aeb5 8cbd ea4d 483e
00000050: 5360 93be 546f ce3d 6f83 21be c0a6 15bd
00000060: 12a8 49be 0932 c63d 3918 1dbe f779 13be
00000070: 0276 8c3c 96a9 a6be 3f26 ed3d 294a 8ebe
00000080: f9b6 673e 0ddd 8f3e 9040 d8bc 3fb3 043d
00000090: 9904 2fbd 33b3 043e 473f 61bd 665d 68bd
000000a0: 2bc8 f2bb c3c8 7bbe 1288 503d 6f37 a6be
000000b0: 344d 09be 80c5 3d3e e431 a0bc 16da e1bd
000000c0: 9e17 173d 5c70 9d3e 08b4 2e3e 3944 08be
000000d0: e9f7 9f3e ee45 40bd 8a33 fb3b 9d78 af3d
000000e0: d011 5ebd 2a81 a93d 5dbc 4abc 9ff6 6a3e
000000f0: 983f 123e 6e3a dd3c 23ca 0dbd a416 9abe
00000100: 4646 84be b1ca c63d 9513 823e d5ce 0dbd
00000110: 5142 cc3d 3026 59be d317 b93d c9e8 96be
00000120: 0934 4ebe e97b a2be 12b8 823e 6022 7fbe
00000130: cf8a 60be 4e2b 4d3e db0f 333e aa6e 063e
00000140: e7d9 a63e 8361 88be 6c1d c53d f6a2 73be
00000150: 798e 7ebe 4033 57be d56a 11be f0c2 55bd
00000160: fda6 65bd 2077 8abc e618 babe abb4 933e
00000170: b56e 4b3e f950 483e 0196 cf3e 19db 48be
00000180: 9010 0fbd 59d2 a4be 27fd ab3d 6e46 8dbe
00000190: 8a54 b3be 052a 9dbd 0d07 32be bbde 9fbe
000001a0: ccd4 7a3d 188f 43bd 4777 533e ecf3 89bd
000001b0: 6733 983d 66c7 963e 9d32 edbd c6f7 793e
000001c0: 613b ca3e 6a64 eebc 372d b4be 62eb 553e
000001d0: 3e5e 3dbe 7ac8 a2be 5115 b0be 3c52 993e
000001e0: aadc aa3e 06c5 33be d1f5 5fbe 1c59 253c
000001f0: 6917 0c3c 5fcb 67bd 5bc1 a9bd bd20 9abd
00000200: c038 8abe 16f2 f93c 2f70 453d 086a 6b3e
00000210: 3c19 98bd 1460 403e 35e6 8c3e 1cca babe
00000220: 4d6e 80bd 252f c83e 9cf9 03be 3cd3 083d
00000230: 0aa8 84bd 5c82 ebbc d09a 893e b4f1 afbd
00000240: 8410 97be f388 cf3d cc06 1cbe 3d72 1b3c
00000250: 5f94 3c3e eed9 0bbe 4abc 94be e142 ffbe
00000260: 487f ec3d f62a 31be 3851 ed3d 9f6a 07be
00000270: 81d2 993e 5505 593e 8c7e 69bd 47f3 69be
00000280: 0c71 903e a20a 40bb 2f39 76be d9e4 9ebe
00000290: 439a 283e 26b5 adbe 0adf 1a3e fe8f b8be
000002a0: aa69 b1be dba9 783e e8af f8bd 4901 2a3e
000002b0: 09c6 f2bd 5d28 f53d d0f0 a6bd f4b1 b73e
000002c0: 3915 a2be 400a 06be c581 11bd 5231 a3be
000002d0: 89d2 f23c 703c 8cbe 1844 733c cbb2 143d
000002e0: 02ee b2be bb6b acbe 2a96 bdbe 3c9a 843d
000002f0: cb68 263d 29b7 c3bd f32a a63e ee28 b1be
00000300: 37d2 133e c5ba 513e be3a acbe a577 91bd
00000310: ac47 1b3e ea2b 2d3e fc93 45bd 03de bebd
00000320: 096c 493e 1c9d c3bd a93e bdbe 444f d6bd
00000330: 9c77 e53d 6823 b63d eee7 46bd a4f1 353e
00000340: c25f 1fbe bdc6 86be fb63 313e ec79 94be
00000350: c9dc 47be 3a0c 973e e10f 83be fb34 79be
00000360: 2bd6 403e e50e 153e 899d b8be 64af febd
00000370: f42d bebe b4e1 50be d451 8abe f768 20be
00000380: c811 52be 039e 4cbe d9b2 5c3e 08f2 74be
00000390: 6719 20be 58bb 43bc b78f a53d 4255 2b3e
000003a0: a04e dbbd fac3 fbbd a27e a23c 2e5d 1ebd
000003b0: 266f b63d b427 043d ea14 8e3e 9693 69be
000003c0: 1c60 433e 43c9 3dbe c961 3b3e 2b7e 2e3e
000003d0: bdf8 953d 1c3d 31be 127a 563c 77dd 733e
000003e0: 69b7 7bbe 475c bbbd

weight f4 [250, 250]
-0.2171168 -0.019887976 -0.0197443 0.012366657 0.061500076 0.116318494 -0.027997406 0.020671625
0.39610553 0.0027369037 -0.032514416 0.018878326 0.04176881 -0.005585523 0.06603867 -0.012828983
-0.0028551926 0.04582355 -0.26581502 -0.099340655 -0.013508219 0.05948617 -0.020872679 0.038070805
-0.00492222 0.074943595 0.015245247 0.12715046 0.08721671 0.026351713 0.0336437 -0.059025068
-0.0053867707 -0.117659666 0.05318497 -0.022760402 -0.017724948 0.027809111 -0.015911205 0.055307873
-0.008053262 0.060757615 0.046528663 0.07063765 0.0071945586 0.021681106 0.057787064 0.03277817
0.06363201 0.033787057 0.054857492 0.050202686 0.110364 0.03176126 -0.027925 -0.029985854
-0.051012877 0.015895419 0.04700552 -0.08872412 -0.029321201 0.048329253 0.018759493 -0.031107806
0.040185634 0.14178234 -0.13350403 -0.010992326 -0.042997677 -0.024411082 0.049608562 0.08678195
0.021204358 0.034779806 0.04979845 -0.04346712 -0.008676957 -0.016157346 0.0064962665 -0.038338453
-0.01659112 0.065655984 0.03183128 -0.0013379297 0.16376843 0.04829695 0.0138556585 0.025322855
0.04141261 0.04024387 0.0806577 -0.057328593 -0.15386516 0.059606988 0.023279212 -0.000993572
0.043349907 -0.04583787 -0.04928138 -0.0021569692 -0.0423645 -0.017043134 0.008301303 -0.07102781
-0.40757236 -0.04113093 -0.02605608 0.09950166 0.039601386 0.009432126 -0.03594459 -0.0903536
-0.16854085 -0.2271918 0.08438434 0.04829105 -0.03131567 0.014863506 0.0019168705 -0.03697818
0.011030906 0.0998043 0.0036413036 -0.017867936 0.008589156 -0.017015997 0.04720048 0.0022430534
0.03144204 -0.09300697 -0.02954343 0.27196395 0.03215982 -0.06216971 0.013911869 0.26022884
0.026340002 0.040130578 0.0047214194 0.042689364 0.05483681 -0.5105044 -0.045611683 0.004739141
0.034764323 0.032501772 -0.14160556 -0.47913045 0.009548183 0.039509527 -0.02396927 1.1147453
-0.06085305 0.035478804 0.01238996 -0.319281 -0.019296017 0.003330844 -0.04215317 -0.046617627
0.008004565 0.03844708 0.5895922 -0.042503327 0.0016847036 0.28030768 -0.030263428 0.03986331
-0.060975328 -0.109685965 -0.035368912 -0.033056732 0.014166889 -0.001504974 0.020034172 0.03103088
0.05977225 -0.056886643 -0.12334953 0.05162061 0.02393434 0.038690038 -0.039667 -0.0057224566
0.035242952 -0.0098386295 0.04954227 -0.14244589 -0.13119106 -0.0031280972 -0.11306142 0.005003974
0.07185055 -0.023716075 0.2649547 0.03577639 -0.15632567 0.056048512 -0.057226643 -0.006053708
-0.049115647 0.07186806 0.00275212 0.0068000033 -0.027748805 0.03988968 -0.11875275 -0.10144114
0.08262869 0.13149692 -0.007958545 -0.054414526 -0.15818453 0.019464469 0.16019218 0.11553431
0.0063298875 0.027051358 0.078203976 0.008645026 -0.002439957 0.055484727 0.0075785373 -0.004994502
0.042457137 -0.03467121 0.005397356 -0.021499213 0.060767375 -0.06957338 -0.008108446 0.053203214
-0.01995634 0.21717086 -0.030002195 -0.020056076 0.039635327 -0.046455495 0.057743717 0.008025475
-0.04321765 -0.034735847 -0.024421515 0.057084195 0.011260331 -0.022466935 -0.09305847 0.085840926
-0.05166164 0.19509682 0.038258556 -0.057305254 0.033409353 0.04318938 0.017899768 -0.018810753
00000000: de53 5ebe 1cec a2bc ccbe a1bc 859d 4a3c
00000010: 81e7 7b3d 6438 ee3d d15a e5bc 8a57 a93c
00000020: 58ce ca3e a05d 333b d62d 05bd b8a6 9a3c
00000030: c615 2b3d c306 b7bb 483f 873d a830 52bc
00000040: 2f1e 3bbb 7ab1 3b3d e818 88be 1d73 cbbd
00000050: 9451 5dbc c5a7 733d 2efd aabc 22f0 1b3d
00000060: 934a a1bb 077c 993d 33c7 793c bb33 023e
00000070: ad9e b23d 8cdf d73c facd 093d 45c4 71bd
00000080: 8283 b0bb 8df7 f0bd 7cd8 593d 0674 babc
00000090: e933 91bc efcf e33c 3758 82bc 828a 623d
000000a0: d4f1 03bc fadc 783d d794 3e3d 79aa 903d
000000b0: 55c0 eb3b 939c b13c 21b2 6c3d 6742 063d
000000c0: 8051 823d 4c64 0a3d 40b2 603d 55a1 4d3d
000000d0: 8506 e23d 1818 023d f8c2 e4bc e5a4 f5bc
000000e0: e1f2 50bd 1c37 823c dc88 403d feb4 b5bd
000000f0: 0433 f0bc e5f4 453d 82ad 993c ccd5 febc
00000100: b199 243d 642f 113e 48b5 08be 2819 34bc
00000110: 551e 30bd c0f9 c7bc 5932 4b3d bcba b13d
00000120: c3b4 ad3c 4575 0e3d 76f9 4b3d 940a 32bd
00000130: cc29 0ebc 695c 84bc a2de d43b c808 1dbd
00000140: 1aea 87bc a576 863d 8461 023d 795d afba
00000150: e9b2 273e 06d3 453d d802 633c e071 cf3c
00000160: 45a0 293d c2d6 243d dd2f a53d 63d1 6abd
00000170: d48e 1dbe 7526 743d 0cb4 be3c be3a 82ba
00000180: ac8f 313d 7ec0 3bbd 46db 49bd f05b 0dbb
00000190: 6686 2dbd 0b9e 8bbc 3002 083c 0777 91bd
000001a0: 53ad d0be e878 28bd 8f73 d5bc 87c7 cb3d
000001b0: 1035 223d 3489 1a3c a23a 13bd 4f0b b9bd
000001c0: f995 2cbe f8a4 68be b2d1 ac3d d6cc 453d
000001d0: dc44 00bd 1086 733c 803f fb3a 6f76 17bd
000001e0: f9ba 343c 3266 cc3d f0a2 6e3b c75f 92bc
000001f0: 88b9 0c3c 2265 8bbc 4a55 413d 3100 133b
00000200: 5ec9 003d 707a bebd 1005 f2bc dc3e 8b3e
00000210: 04ba 033d aaa5 7ebd 9cee 633c b73c 853e
00000220: fdc6 d73c f65f 243d 23b6 9a3b 0bdb 2e3d
00000230: 909c 603d 6bb0 02bf 51d3 3abd cc4a 9b3b
00000240: 0965 0e3d 9420 053d 0c01 11be 9650 f5be
00000250: fb6f 1c3c bed4 213d 345b c4bc f9af 8e3f
00000260: 0c41 79bd 3952 113d 42ff 4a3c cd78 a3be
00000270: ae12 9ebc 4a4a 5a3b cda8 2cbd 20f2 3ebd
00000280: 9425 033c af7a 1d3d 84ef 163f f817 2ebd
00000290: 46d1 dc3a 7d84 8f3e 02eb f7bc b647 233d
000002a0: 44c1 79bd 09a3 e0bd fede 10bd 7f66 07bd
000002b0: 3d1c 683c 8c42 c5ba b41e a43c 7934 fe3c
000002c0: bfd3 743d f801 69bd ae9e fcbd 2270 533d
000002d0: f311 c43c 7279 1e3d dd79 22bd 7283 bbbb
000002e0: ea5a 103d 3432 21bc d6ec 4a3d 56dd 11be
000002f0: f356 06be c300 4dbb bf8c e7bd 60f8 a33b
00000300: 6226 933d 3748 c2bc 24a8 873e 448a 123d
00000310: d613 20be 2093 653d 7c66 6abd 2f5e c6bb
00000320: 7d2d 49bd 902f 933d e95c 343b 90d2 de3b
00000330: 7651 e3bc 5c63 233d a434 f3bd 5fc0 cfbd
00000340: 3b39 a93d 21a7 063e 8f64 02bc c4e1 5ebd
00000350: 20fb 21be f373 9f3c 6b09 243e 419d ec3d
00000360: f26a cf3b cf9a dd3c 6829 a03d dea3 0d3c
00000370: b0e7 1fbb f443 633d 6155 f83b eba8 a3bb
00000380: 89e7 2d3d 6603 0ebd 4edc b03b 1e1f b0bc
00000390: 36e7 783d 7d7c 8ebd 4ad9 04bc 9deb 593d
000003a0: 7a7b a3bc 0a62 5e3e 2ac7 f5bc a44c a4bc
000003b0: a758 223d 1e48 3ebd ad84 6c3d 487d 033c
000003c0: fe04 31bd 2d47 0ebd a10f c8bc 1ed1 693d
000003d0: 407d 383c 940c b8bc 7095 bebd 5ecd af3d
000003e0: 289b 53bd 76c7 473e 01b5 1c3d eab8 6abd
000003f0: 3fd8 083d 59e7 303d 89a2 923c 0219 9abc

bias f4 [250]
-0.059353665 -0.06697945 -0.03859707 0.09979044 0.0018361217 -0.02831468 -0.05674628 -0.012308015
0.020822462 -0.03428652 -0.031921193 0.018331677 -0.045588747 -0.025394324 -0.022668356 -0.040013198
-0.04281444 0.035720438 0.04208923 -0.07518774 0.0007251476 0.01686496 -0.022144072 -0.033494323
-0.012173947 0.05080323 0.03822668 -0.086176574 0.063565895 0.04349409 -0.012973312 -0.0033522323
-0.0026577148 -0.0034148535 -0.05507491 0.03147143 0.048858736 -0.073188 -0.022333836 -0.05425913
-0.039355267 0.052872434 0.012062814 0.06470864 -0.047131665 -0.038107205 0.005940755 -0.004803866
-0.07029855 -0.033008795 -0.038367845 -0.012683264 0.037817657 -0.03950166 -0.008776423 -0.041077074
-0.042025417 -0.06950312 0.031574912 -0.010397604 0.050325803 -0.055746213 -0.0035651792 -0.06567851
-0.03239511 -0.033692047 -0.07908631 0.0066380496 -0.04504255 -0.0015945879 -0.045925826 -0.021567877
0.040855117 0.07562993 0.03311242 -0.11898126 0.033535432 0.0073040817 -0.051373884 0.09200476
-0.07732474 0.0708729 0.02159339 -0.09352059 0.03281652 0.019113086 -0.0037495396 0.1031895
-0.068169184 0.007247025 -0.025373032 0.050566956 -0.03274961 -0.0102764 0.10427879 0.003013994
-0.046654772 0.013903697 -0.061301544 -0.062315445 -0.11823813 0.010594643 -0.033525277 0.023564277
0.03460767 -0.07360875 -0.018113548 -0.04982196 0.026868228 0.041748475 -0.08028314 0.05215878
0.034561537 -0.06275087 0.059687614 -0.046985283 0.0104985135 -0.03863137 0.02788123 -0.08505697
0.050413877 -0.06358321 0.010593448 -0.050284147 0.023729106 0.019597135 0.0005486533 -0.015715599
0.05527174 -0.02251105 0.0291722 0.10868833 0.06495094 -0.05007391 -0.025420882 -0.046154976
0.10934761 -0.02657733 -0.06176893 0.06941793 -0.036451515 0.035416573 -0.034266 -0.11743361
-0.029006688 -0.112510584 0.09363984 0.02629082 -0.06254291 -0.069760695 0.06608133 -0.014228046
-0.07600022 -0.00481516 -0.0062704557 0.02850091 -0.06252625 -0.0018226983 -0.01193545 0.036290105
0.017135419 -0.096849844 -0.009933312 0.07274702 -0.060295135 0.047578912 -0.05018187 -0.03739289
-0.049556043 0.039347634 -0.0054095765 0.009022862 0.0037656014 -0.0041519045 -0.04988633 -0.0019465999
-0.035043027 0.0055674203 0.066112064 0.009348926 -0.0793327 0.09124699 -0.059458695 0.007999841
-0.08548809 0.02877128 -0.038062625 -0.0024996917 -0.037367083 -0.0024080249 -0.014048189 -0.058077462
0.050284836 -0.034824923 -0.0013977275 -0.061886057 -0.02354598 -0.0981007 -0.042949285 0.0060154013
0.028144017 -0.046656393 -0.00053137186 -0.044815905 -0.031924758 -0.061726622 -0.028271172 0.012585707
0.04755374 -0.0716709 -0.037073098 -0.056016937 -0.02104054 0.0002581074 0.03650437 0.025971849
0.023929775 0.023149882 -0.033191632 -0.034604393 -0.054933634 0.0070491293 0.050823182 0.0640368
0.027505757 -0.050265353 -0.061686624 0.037646446 -0.012400249 0.08506413 -0.027886074 0.079204895
0.09982609 -0.06554745 0.008183339 -0.0072231097 0.039519534 0.044416256 0.014691477 -0.01046663
0.059157696 -0.041693278 -0.020708349 -0.018633517 -0.04483551 0.019858424 0.006733414 -0.011595867
-0.057775646 0.004551381
00000000: d41c 73bd 862c 89bd f617 1ebd ee5e cc3d
00000010: 05aa f03a 30f4 e7bc ca6e 68bd 8ea7 49bc
00000020: de93 aa3c 0670 0cbd ccbf 02bd 502c 963c
00000030: 44bb 3abd c207 d0bc fdb2 b9bc e1e4 23bd
00000040: 325e 2fbd 984f 123d c265 2c3d 08fc 99bd
00000050: d517 3e3a 6228 8a3c 7c67 b5bc 5831 09bd
00000060: 3c75 47bc 0c17 503d 9493 1c3d 587d b0bd
00000070: d62e 823d dc26 323d 048e 54bc 20b1 5bbb
00000080: 0e2d 2ebb bccb 5fbb 3b96 61bd 30e8 003d
00000090: 1920 483d 97e3 95bd 73f5 b6bc d23e 5ebd
000000a0: fd32 21bd c490 583d 1ca3 453c f785 843d
000000b0: 220d 41bd 4d16 1cbd aaaa c23b c069 9dbb
000000c0: b0f8 8fbd 3b34 07bd 9a27 1dbd 77cd 4fbc
000000d0: b0e6 1a3d 7ecc 21bd fcca 0fbc 6f40 28bd
000000e0: d822 2cbd a757 8ebd b254 013d b65a 2abc
000000f0: 6e22 4e3d 2456 64bd c8a5 69bb 7482 86bd
00000100: bcb0 04bd ac00 0abd 01f8 a1bd ff83 d93b
00000110: 897e 38bd 7e01 d1ba b81c 3cbd 1eaf b0bc
00000120: b257 273d dde3 9a3d e4a0 073d 72ac f3bd
00000130: 735c 093d 1457 ef3b 6c6d 52bd fe6c bc3d
00000140: 6f5c 9ebd d025 913d 9fe4 b03c b987 bfbd
00000150: 9e6a 063d 0c93 9c3c d6ba 75bb 0455 d33d
00000160: 499c 8bbd 7478 ed3b 1bdb cfbc 4c1f 4f3d
00000170: 7424 06bd 585e 28bc 1e90 d53d 6e86 453b
00000180: 1319 3fbd 55cc 633c 5417 7bbd 7b3e 7fbd
00000190: d526 f2bd 2795 2d3c cd51 09bd df09 c13c
000001a0: c6c0 0d3d 2fc0 96bd dd62 94bc 1d12 4cbd
000001b0: c21a dc3c 7300 2b3d 7d6b a4bd 72a4 553d
000001c0: 6690 0d3d 8783 80bd 007b 743d a473 40bd
000001d0: f501 2c3c ed3b 1ebd 2d67 e43c 5932 aebd
000001e0: c87e 4e3d ea37 82bd 2490 2d3c c0f6 4dbd
000001f0: 8b63 c23c 2c8a a03c 80d3 0f3a 00be 80bc
00000200: 9f64 623d 1869 b8bc 8afa ee3c fd97 de3d
00000210: 0005 853d 4d1a 4dbd 743f d0bc 000d 3dbd
00000220: a4f1 df3d b3b8 d9bc 6b01 7dbd fd2a 8e3d
00000230: 2f4e 15bd f810 113d 815a 0cbd 0881 f0bd
00000240: 6f9f edbc f36b e6bd 3fc6 bf3d d95f d73c
00000250: 7f16 80bd b2de 8ebd a655 873d c01c 69bc
00000260: 01a6 9bbd 7dc8 9dbb 6578 cdbb be7a e93c
00000270: c30d 80bd 9be7 eeba e88c 43bc efa4 143d
00000280: 945f 8c3c 3659 c6bd 55bf 22bc 64fc 943d
00000290: 08f8 76bd 1be2 423d 818b 4dbd 4929 19bd
000002a0: 47fb 4abd fc2a 213d d142 b1bb a0d4 133c
000002b0: 4fc8 763b b30c 88bb 9c55 4cbd 0e25 ffba
000002c0: 4789 0fbd e86e b63b c365 873d 3d2c 193c
000002d0: 2f79 a2bd b4df ba3d f68a 73bd c411 033c
000002e0: 6114 afbd bfb1 eb3c 8ee7 1bbd ded1 23bb
000002f0: 3a0e 19bd f4cf 1dbb 602a 66bc a2e2 6dbd
00000300: 79f7 4d3d 94a4 0ebd f433 b7ba 3c7c 7dbd
00000310: 80e3 c0bc 05e9 c8bd 97eb 2fbd d81c c53b
00000320: 488e e63c c61a 3fbd c34b 0bba e290 37bd
00000330: 89c3 02bd 0ed5 7cbd f298 e7bc 4834 4e3c
00000340: b6c7 423d 31c8 92bd f6d9 17bd 0472 65bd
00000350: 365d acbc 9752 8739 9b85 153d eac2 d43c
00000360: 6008 c43c d2a4 bd3c f3f3 07bd 56bd 0dbd
00000370: 1702 61bd 62fc e63b f82b 503d ba25 833d
00000380: c153 e13c 0be3 4dbd 1dab 7cbd 2933 1a3d
00000390: 6a2a 4bbc 1a36 ae3d 5671 e4bc 2d36 a23d
000003a0: 9f71 cc3d be3d 86bd 6913 063c d6af ecbb
000003b0: 3cdf 213d d2ed 353d 85b4 703c 3a7c 2bbc
000003c0: 574f 723d 92c6 2abd 8ea4 a9bc 51a5 98bc
000003d0: 71a5 37bd 22ae a23c f8a3 dc3b 97fc 3dbc
000003e0: 28a6 6cbd c023 953b

weight f4 [2, 250]
0.017622447 -0.012053343 -0.041983355 0.010204339 0.010663675 0.04543635 0.00545431 0.01450869
0.008080499 -0.017566312 0.033271004 0.050036408 -0.019919874 -0.023942279 0.06269205 0.038790755
-0.03265375 -0.039056357 -0.054679893 0.04878637 -0.05388623 0.040220782 -0.021074675 0.06770727
0.0043765665 -0.0626142 -0.03456569 0.009829911 -0.020499809 0.0143833365 -0.009814639 -0.03457395
-0.01133661 0.021587042 -0.038472887 0.06691368 0.01747461 0.014328391 -0.12302131 0.03199677
0.04570266 0.030108536 -0.003767517 0.04664462 -0.05419153 0.07799484 0.004227688 -0.02282864
0.03558427 -0.029428283 -0.06760041 0.2593694 -0.0026363714 -0.020075148 -0.0117088705 0.010086736
0.030978266 0.010904481 -0.045672838 0.04055319 0.035691746 0.022943106 0.04596088 0.036174633
0.045795247 -0.017702246 -0.026335837 -0.05082562 0.035756093 -0.022078834 0.00995858 -0.03342136
0.066546895 0.067594774 -0.035488546 -0.015229401 -0.04303586 0.05555235 -0.02057299 0.010204289
0.04060268 0.06597497 -0.0003379713 -0.049291927 0.01141349 0.018174523 -0.00039397794 -0.02942563
-0.087945275 -0.0054218485 -0.02310871 -0.04416187 0.008390876 0.0011984631 0.00950671 -0.024623781
-0.02213155 0.08983772 -0.00064854324 0.012499355 0.00307241 0.033310477 0.00022221953 -0.022059146
0.040832672 0.024550626 -0.002090508 -0.02349655 -0.039098646 -0.0895979 0.068601064 0.051118817
0.08831358 0.04379624 0.010117872 0.044237036 -0.049749177 -0.024549024 0.07868877 -0.04740105
-0.039237775 -0.058026068 -0.018861227 -0.0708595 0.06428918 -0.045960844 -0.039059732 -0.04122207
0.046062585 0.03918117 -0.030772004 0.018706353 -0.023660423 -0.003461762 0.047262665 -0.016644392
0.009291762 0.042442784 0.01507945 -0.03918178 -0.018959844 0.021158239 -0.006015861 -0.0047512553
0.016358368 0.01902242 0.021051416 -0.0029208232 0.19823585 -0.04307774 -0.04120783 -0.00019069259
-0.045671917 0.009558631 -0.02767838 0.07868865 0.0334405 -0.016171569 8.628846e-05 0.068817005
-0.051625725 0.010962933 -0.01663759 -0.015022884 0.0030837357 -0.014671024 -0.024228908 -0.017229974
0.0007629407 -0.014882435 -0.016023267 0.06425067 0.071078695 0.021907194 0.06721215 -0.007602052
0.0032424086 -0.009155455 -0.00074881845 -0.0012722767 0.009382609 -0.080902 0.007944523 -0.033413045
0.021629669 0.018185258 0.038587958 -0.19947718 0.06737077 -0.014557166 0.016788997 0.00658118
0.04002732 -0.04663951 0.015895965 0.019171478 -0.014895943 0.032745544 0.0042007565 -0.0005028639
-0.013464245 -0.009583905 0.07564813 0.048652917 0.07281342 -0.028293464 0.017370531 -0.011570927
-0.030702583 -0.08018106 0.04917191 -0.010022283 0.012661594 -0.08881586 -0.06396597 0.007774548
-0.03359747 0.019302785 -0.058494195 0.02675276 0.026521862 0.071041845 -0.022355888 -0.04059788
-0.044701118 0.0005220073 0.00090188783 0.047142196 -0.019470492 0.026067605 0.023802258 -0.025924606
0.03987337 0.040056374 0.051689245 -0.020112738 0.018092655 -0.0017051873 -0.000578782 0.038881205
-0.037795242 0.028863292 0.009123705 0.073878065 -0.020653754 -0.015884923 0.01159675 0.035213314
0.031212315 -0.030758722 -0.04220306 -0.004917333 -0.031780045 0.08476272 -0.036947556 0.036340058
00000000: f35c 903c 627b 45bc bdf6 2bbd 1a30 273c
00000010: b2b6 2e3c 771b 3a3d 12ba b23b dbb5 6d3c
00000020: 1264 043c 3ae7 8fbc 2d47 083d faf2 4c3d
00000030: 012f a3bc 9922 c4bc b164 803d 0ee3 1e3d
00000040: f0bf 05bd 8ff9 1fbd 06f8 5fbd 37d4 473d
00000050: cfb7 5cbd 8cbe 243d cca4 acbc 1caa 8a3d
00000060: 4d69 8f3b e03b 80bd c194 0dbd a30d 213c
00000070: 37ef a7bc 16a8 6b3c 94cd 20bc 6a9d 0dbd
00000080: 30bd 39bc 4fd7 b03c bf95 1dbd 0a0a 893d
00000090: ea26 8f3c a1c1 6a3c 99f2 fbbd 0c0f 033d
000000a0: b632 3b3d 2da6 f63c 72e8 76bb 6e0e 3f3d
000000b0: f0f7 5dbd c2bb 9f3d 6b88 8a3b 2103 bbbc
000000c0: d0c0 113d 9513 f1bc 1572 8abd 11cc 843e
000000d0: f9c6 2cbb a374 a4bc 90d6 3fbc d642 253c
000000e0: 22c6 fd3c b5a8 323c 7113 3bbd 1a1b 263d
000000f0: 8231 123d 2ef3 bb3c 7a41 3c3d da2b 143d
00000100: cc93 3b3d 4d04 91bc 41be d7bc 862e 50bd
00000110: fb74 123d acde b4bc 5029 233c d6e4 08bd
00000120: bd49 883d 216f 8a3d 705c 11bd bd84 79bc
00000130: 5f46 30bd dc8a 633d b088 a8bc e42f 273c
00000140: ff4e 263d e31d 873d bd31 b1b9 55e6 49bd
00000150: a6ff 3a3c bde2 943c d38e ceb9 050e f1bc
00000160: a71c b4bd c3a9 b1bb 7a4e bdbc 14e3 34bd
00000170: e379 093c c015 9d3a 08c2 1b3c d0b7 c9bc
00000180: 394d b5bc d7fc b73d 0003 2aba 18ca 4c3c
00000190: 7c5a 493b 9170 083d 9a03 6939 62b5 b4bc
000001a0: 2940 273d 651e c93c e700 09bb d67b c0bc
000001b0: e725 20bd 1b7f b7bd b77e 8c3d f761 513d
000001c0: c0dd b43d b063 333d 6ec5 253c e531 353d
000001d0: cbc5 4bbd 091b c9bc 9427 a13d 9a27 42bd
000001e0: cab7 20bd beac 6dbd dc82 9abc c91e 91bd
000001f0: 0caa 833d 7041 3cbd 19fd 1fbd 79d8 28bd
00000200: 1fac 3c3d 6f7c 203d 9215 fcbc 113e 993c
00000210: 81d3 c1bc bbde 62bb 7f96 413d d259 88bc
00000220: 793c 183c 7cd8 2d3d cc0f 773c 137d 20bd
00000230: ad51 9bbc 0b54 ad3c b320 c5bb 6bb0 9bbb
00000240: fc01 863c e8d4 9b3c 0574 ac3c 486b 3fbb
00000250: 57fe 4a3e 4972 30bd 8bc9 28bd a7f4 47b9
00000260: 7a12 3bbd ce9b 1c3c c5bd e2bc 8427 a13d
00000270: e8f8 083d 3d7a 84bc c4f5 b438 eeef 8c3d
00000280: 7f75 53bd e09d 333c 8e4b 88bc 8b22 76bc
00000290: 8018 4a3b bc5e 70bc b47b c6bc e025 8dbc
000002a0: 1500 483a 75d5 73bc 3a43 83bc db95 833d
000002b0: b591 913d b776 b33c 86a6 893d a21a f9bb
000002c0: 977e 543b c300 16bc 5b4c 44ba 86c2 a6ba
000002d0: 84b9 193c f3af a5bd bf29 023c 1edc 08bd
000002e0: b430 b13c 40f9 943c 680e 1e3d bf43 4cbe
000002f0: b0f9 893d 2e81 6ebc 1489 893c f0a6 d73b
00000300: b0f3 233d 1209 3fbd 4138 823c 810d 9d3c
00000310: 1d0e 74bc 3120 063d 80a6 893b a0d2 03ba
00000320: 2399 5cbc d005 1dbc 68ed 9a3d 4848 473d
00000330: 341f 953d b2c7 e7bc a54c 8e3c fc93 3dbc
00000340: fc83 fbbc f835 a4bd 7c68 493d 8034 24bc
00000350: 9372 4f3c 17e5 b5bd 9700 83bd a3c1 fe3b
00000360: 809d 09bd e020 9e3c 9c97 6fbd 9b28 db3c
00000370: 6044 d93c 637e 913d b223 b7bc f649 26bd
00000380: 8518 37bd 51d7 083a ab6c 6c3a 2d18 413d
00000390: 9580 9fbc bb8b d53c f4fc c23c d75f d4bc
000003a0: 4252 233d 2712 243d 1ab8 533d 78c3 a4bc
000003b0: 0c37 943c 9780 dfba 67b9 17ba e641 1f3d
000003c0: 2fcf 1abd b672 ec3c 987b 153c 624d 973d
000003d0: 1032 a9bc 1921 82bc 4b00 3e3c d63b 103d
000003e0: f8b0 ff3c b7f9 fbbc 1edd 2cbd 9421 a1bb
000003f0: cb2b 02bd 1498 ad3d 5256 17bd 50d9 143d

bias f4 [2]
-0.0036320619 0.07383374
00000000: e307 6ebb 2536 973d

weight f4 [2, 250]
0.18289186 0.04391796 0.02675984 -0.23379275 0.0451696 0.06742486 -0.2475859 -0.0068273735
-0.2267162 -0.06046183 0.01133876 -0.251321 -0.006013945 -0.0019350764 0.026248911 0.23627748
-0.0077606104 -0.00020970551 0.009765238 0.029335955 0.024904339 -0.34911573 -0.04235173 -0.02457154
-0.021563685 -0.11183277 -0.100462765 -0.055134326 -0.24628246 0.02743795 0.007551879 0.01862289
-0.07946295 0.14408663 -9.47178e-05 -0.08610993 -0.5801276 0.030195158 0.21455511 0.044556648
0.06519479 -0.2706191 0.025045952 0.007886174 0.004313886 -0.2404605 0.3739244 -0.20370077
-0.06089191 0.066785485 0.0422021 0.42632845 -0.0055665383 0.027316345 0.008180493 -0.007748115
0.017057933 0.015309117 -0.2172431 0.117671624 -0.27342895 0.042796522 0.010229549 0.030787563
0.0007911604 -0.047173277 0.030584257 0.04501128 -0.003389762 -0.4481047 0.04553353 -0.03317739
-0.28174508 -0.42781433 -0.52050436 0.027635155 -0.07603892 0.06659637 0.053219035 -0.28938156
0.028833173 -0.21333864 -0.22931235 -0.04402195 0.045122348 -0.19261932 -0.23889555 -0.3133198
0.71135235 -0.023409402 0.03757687 -0.3090133 0.038857274 0.03134127 -1.1845286 -0.19508022
0.0103582805 -0.15257539 -0.022266567 0.040242 0.05597179 0.018177303 -0.13077684 -0.0108654015
-0.2609505 -0.030596195 -0.088225804 -0.07488997 -0.2343093 -0.19090356 0.09469019 -0.07547419
-0.20877692 0.0028245524 -0.21180268 -0.0037397807 -0.4160918 -0.026049297 -0.23963392 0.05344626
-0.03452467 -0.03851083 -0.4337274 -0.028090738 -0.10672733 -0.16555032 0.029122397 -0.03302716
0.024581855 0.09790439 0.08764238 -0.30066255 0.055226598 0.016464768 -0.011725338 -0.0071974522
-0.9856503 0.00888963 -0.21977289 -0.33485043 0.01698972 0.010077794 -0.09618927 0.034824286
-0.039998338 0.10804245 0.010947023 -0.1018046 1.7765034 -0.014991062 -0.29546416 -0.65440184
0.04511599 0.039538704 -0.13927811 0.30849186 0.02224794 -0.14478356 -0.47368762 -0.16077209
-0.008680176 -0.017148618 0.066760786 -0.010336099 -0.025439817 -0.8785034 0.0031643212 -0.06321099
-0.034554698 -0.25888208 -0.02321862 -0.19644123 -0.35157955 0.045556135 0.035978746 -0.36948735
-0.04521623 -0.0076187444 -0.16823357 -0.59343076 0.0026246675 -0.36708358 0.052755535 -0.2025195
0.0503854 0.16958234 0.017525276 0.98412347 0.0625662 -0.16261347 -0.09877375 -0.019564062
-0.22712858 0.002362912 -0.03292731 -0.05578737 0.044579726 -0.0035005454 0.022294015 0.026663212
-0.03441233 -0.0070842556 0.06712637 -0.05714774 -0.26132518 0.029397205 0.016858265 -0.05076688
-0.338602 0.061332848 -0.229311 0.002556771 0.054841492 -0.09496745 -0.005330309 0.19948728
-0.021927658 0.15201537 0.041136358 -0.0048544025 -0.043267824 0.04392692 -0.47412643 0.5160697
0.043014497 -0.26565087 -0.07073741 -0.27176115 0.027224516 -0.43324083 0.11879005 -0.15567423
-0.3395658 -0.059973244 -0.024587788 -0.03444822 0.026172822 -0.18551701 1.3784586 0.29899475
-0.27099434 -0.044961847 -0.05621995 -0.0468033 0.012361446 -0.32745767 0.046544697 0.0048331707
-0.024241295 0.06035112 -0.08007116 -0.008941534 -0.024069788 -0.14730981 -0.04823767 0.043636944
00000000: 0148 3b3e 52e3 333d 7437 db3c 5e67 6fbe
00000010: c203 393d 0c16 8a3d 2887 7dbe 29b8 dfbb
00000020: 4b28 68be d3a6 77bd 35c6 393c 25ad 80be
00000030: a110 c5bb 64a2 fdba f507 d73c b9f2 713e
00000040: b84c febb 65e4 5bb9 60fe 1f3c f551 f03c
00000050: 2f04 cc3c 4cbf b2be 0279 2dbd 414a c9bc
00000060: 53a6 b0bc 9408 e5bd 6cbf cdbd 88d4 61bd
00000070: 7831 7cbe 8dc5 e03c c175 f73b 088f 983c
00000080: 79bd a2bd 728b 133e 3ba3 c6b8 675a b0bd
00000090: 3e83 14bf d65b f73c 56b4 5b3e 0881 363d
000000a0: d984 853d 968e 8abe 2b2d cd3c 0335 013c
000000b0: 805b 8d3b 473b 76be 0573 bf3e ef96 50be
000000c0: cc69 79bd d4c6 883d 1cdc 2c3d b947 da3e
000000d0: 8267 b6bb 87c6 df3c 7907 063c e6e3 fdbb
000000e0: 14bd 8b3c 17d3 7a3c fa74 5ebe d2fd f03d
000000f0: e1fe 8bbe 684b 2f3d d799 273c 3336 fc3c
00000100: e065 4f3a c438 41bd d68b fa3c bf5d 383d
00000110: c526 5ebb fb6d e5be 5e81 3a3d 04e5 07bd
00000120: e440 90be 7b0a dbbe c63f 05bf 1f63 e23c
00000130: 4bba 9bbd ad63 883d 34fc 593d d229 94be
00000140: 8c33 ec3c 7275 5abe dbd0 6abe 5c50 34bd
00000150: 36d2 383d 003e 45be 09a1 74be 746b a0be
00000160: 301b 363f 13c5 bfbc 34ea 193d fe36 9ebe
00000170: ce28 1f3d b45f 003d a29e 97bf 1cc3 47be
00000180: c7b5 293c b93c 1cbe 6068 b6bc ccd4 243d
00000190: ad42 653d 91e8 943c 5dea 05be cc04 32bc
000001a0: 4e9b 85be dfa4 fabc bbaf b4bd ea5f 99bd
000001b0: c7ee 6fbe 397c 43be eeec c13d 3692 9abd
000001c0: 9ec9 55be 201c 393b cde2 58be 1c17 75bb
000001d0: fc09 d5be 5665 d5bc 9862 75be 77ea 5a3d
000001e0: be69 0dbd 88bd 1dbd 8511 debe 8c1e e6bc
000001f0: dc93 dabd 0686 29be 1892 ee3c 7d47 07bd
00000200: e35f c93c 1982 c83d d97d b33d 71f0 99be
00000210: 4935 623d 1fe1 863c a21b 40bc 9bd8 ebbb
00000220: 9453 7cbf d0a5 113c 250c 61be 8471 abbe
00000230: 062e 8b3c 551d 253c e1fe c4bd e9a3 0e3d
00000240: 4cd5 23bd 5c45 dd3d 245b 333c ee7e d0bd
00000250: 7764 e33f 129d 75bc 1447 97be e186 27bf
00000260: 8bcb 383d 56f3 213d ec9e 0ebe a5f2 9d3e
00000270: 5041 b63c 2442 14be 2f87 f2be 70a1 24be
00000280: 4c37 0ebc 427b 8cbc e1b9 883d be58 29bc
00000290: 2a67 d0bc 99e5 60bf 8060 4f3b c374 81bd
000002a0: 3a89 0dbd 318c 84be fa34 bebc e427 49be
000002b0: 3c02 b4be 1299 3a3d 735e 133d 722d bdbe
000002c0: a734 39bd a9a6 f9bb 6c45 2cbe 14eb 17bf
000002d0: 9d02 2c3b 61f2 bbbe 3016 583d 4661 4fbe
000002e0: ec60 4e3d fea6 2d3e 2b91 8f3c 84ef 7b3f
000002f0: b522 803d 2584 26be e449 cabd d044 a0bc
00000300: 6594 68be 16db 1a3b c9de 06bd 4c81 64bd
00000310: 3b99 363d 6869 65bb f0a1 b63c cf6c da3c
00000320: f1f3 0cbd 0b23 e8bb 8d79 893d c013 6abd
00000330: 6acc 85be 68d2 f03c 581a 8a3c eff0 4fbd
00000340: 3e5d adbe 2738 7b3d 81d0 6abe 808f 273b
00000350: 79a1 603d 4b7e c2bd dfa9 aebb 6546 4c3e
00000360: a2a1 b3bc eba9 1b3e 997e 283d ae11 9fbb
00000370: 9a39 31bd b7ec 333d b3c0 f2be 251d 043f
00000380: f82f 303d 6403 88be c6de 90bd 4724 8bbe
00000390: f305 df3c bed1 ddbe 3348 f33d 1169 1fbe
000003a0: 92db adbe 81a6 75bd 546c c9bc 9419 0dbd
000003b0: 6368 d63c 2cf8 3dbe 5571 b03f d715 993e
000003c0: c5bf 8abe ea29 38bd e446 66bd d1b4 3fbd
000003d0: aa87 4a3c 88a8 a7be a7a5 3e3d 935f 9e3b
000003e0: ae95 c6bc bc32 773d 59fc a3bd 837f 12bc
000003f0: 012e c5bc 62d8 16be dd94 45bd a7bc 323d

bias f4 [2]
-0.40835422 -0.42927942
00000000: ce13 d1be 83ca dbbe

z f4 [182, 2]
-2.1399815 -0.008995518 -1.4793426 -0.06073762 -1.0344508 0.10194147 -0.68125504 0.052160375
-0.39259708 -0.2826731 -0.22800586 -0.39702 -0.07255695 -0.5636099 0.12942055 -0.59651566
0.1783033 -0.6876382 0.18284948 -0.86658144 0.22509587 -0.9594871 0.41930667 -1.4065431
0.48219946 -1.632739 -0.5486071 0.400727 -0.40256047 -0.060876623 -1.148994 -0.9636515
-0.58726007 -0.94852793 -0.46210578 -1.0971622 -0.18252443 -0.24075456 -0.09306001 -0.3402563
0.45201448 -0.9068527 -0.2648829 0.22284342 -0.14544971 0.028891148 -0.016159475 0.029875942
0.09204411 -0.06486488 0.2571485 -0.20898706 0.4273526 -0.39152005 0.6132802 -0.48200807
0.59529144 -0.90126073 0.97837085 -0.70832443 1.0880581 -0.80646735 1.2202904 -0.8741992
1.2835498 -1.0600377 1.5054175 -1.1873163 -0.008323673 -0.24755436 0.118306175 -0.28552437
0.21460512 -0.3394035 0.32846814 -0.5026231 0.56932205 -0.58538616 0.7479618 -0.7394769
0.8805959 -0.84787756 1.0056161 -1.0386701 1.1317778 -1.2912952 1.2051729 -1.442706
1.459282 -1.671233 1.6043993 -1.9546087 0.21086258 -2.417906 -0.8650052 -0.1337499
-0.76205236 -0.40347108 -0.6358215 -0.54806215 -0.5092798 -0.71891963 -0.25603753 -1.1002007
-0.15664831 -0.96299124 -0.052828804 -1.1071537 -0.6351637 -0.18691278 -0.5169364 -0.44702303
-0.34034485 -0.5582463 -0.28182214 -0.6565213 -0.06029452 -0.7557003 0.029872797 -0.8881615
0.1054307 -1.2675965 0.28770387 -1.2066008 0.49081767 -1.3373253 -0.41144294 -1.4917277
-0.19610903 -1.6313287 -0.07321866 -1.6149185 -0.7654974 -1.645893 -0.56838524 -1.6741428
-1.2421868 1.0984606 -0.85379875 1.0176615 -1.0087537 0.6267706 -0.682902 1.2705142
-0.8487489 0.4079926 -0.43092617 1.0990425 -0.07922508 1.749911 0.017212223 1.3773018
0.16807964 1.6784804 -0.21543115 0.642496 -0.07515316 0.76630026 0.15791331 1.2196941
0.3243256 1.5600232 0.18611707 0.94754124 -0.11899842 0.39824182 0.0011197124 0.46906158
0.22414933 0.7614435 0.43398607 1.0852993 0.56683224 1.2959411 0.32312387 0.65713394
0.47269884 0.9149061 0.25192687 0.3757711 0.37141678 0.5799099 0.5360967 0.7897351
0.68593985 1.0212156 0.41327122 0.47027555 0.76257855 0.9355665 0.23342235 0.11196423
0.46404213 0.4020272 0.63895375 0.65150726 0.8281967 0.7697359 0.34994507 0.064328596
0.5617379 0.2703989 0.9150781 0.58039314 1.1779974 0.9186914 0.65733397 0.17266952
0.98406774 0.5399574 1.2616673 0.7849778 0.71063924 0.04360784 1.0949107 0.4168913
0.9715873 0.15325147 1.1122379 0.32255045 1.4489182 0.6008855 1.0486425 0.085278355
0.82493407 -0.10610933 1.2370216 0.23335816 1.4081112 0.1705948 1.5655961 0.30240986
1.6838524 0.39215434 1.895962 0.6069756 1.2585742 -0.113629945 2.0518432 0.52358544
1.848805 0.2881404 1.1202524 -0.30055493 -1.3033018 1.6754557 -0.8157221 1.5262021
-0.47085744 1.7482132 -0.48268554 1.3893645 -0.32440642 1.5711678 -0.19388527 1.3292755
00000000: 75f5 08c0 f061 13bc 195b bdbf 03c8 78bd
00000010: e268 84bf b0c6 d03d bb66 2ebf 1ea6 553d
00000020: 7c02 c9be 87ba 90be 5e7a 69be 3546 cbbe
00000030: bd98 94bd bd48 10bf d286 043e 40b5 18bf
00000040: 2495 363e 0f09 30bf e53c 3b3e 48d8 5dbf
00000050: 887f 663e f2a0 75bf 5daf d63e 9b09 b4bf
00000060: d9e2 f63e 97fd d0bf 8471 0cbf 172c cd3e
00000070: 681c cebe c459 79bd 3c12 93bf ddb1 76bf
00000080: ad56 16bf bad2 72bf 2199 ecbe d06f 8cbf
00000090: afe7 3abe 5d88 76be 3f96 bebd 1336 aebe
000000a0: 716e e73e 8027 68bf bb9e 87be 1131 643e
000000b0: c5f0 14be 21ad ec3c e060 84bc 64be f43c
000000c0: 9f81 bc3d e1d7 84bd f8a8 833e b400 56be
000000d0: f6cd da3e 5175 c8be eeff 1c3f c3c9 f6be
000000e0: 0565 183f 06b9 66bf 8376 7a3f c054 35bf
000000f0: 7d45 8b3f a574 4ebf 7a32 9c3f 85cb 5fbf
00000100: 5c4b a43f 51af 87bf 85b1 c03f fbf9 97bf
00000110: 0460 08bc e47e 7dbe 824a f23d 4030 92be
00000120: 72c1 5b3e 4cc6 adbe fa2c a83e e8ab 00bf
00000130: 17bf 113f dedb 15bf 6d7a 3f3f 5c4e 3dbf
00000140: bc6e 613f 810e 59bf 07b8 803f 24f3 84bf
00000150: 18de 903f 2949 a5bf 1b43 9a3f 97aa b8bf
00000160: c1c9 ba3f f7ea d5bf f55c cd3f 9e30 fabf
00000170: 5cec 573e f9be 1ac0 fb70 5dbf bcf5 08be
00000180: dd15 43bf c393 cebe 33c5 22bf cd4d 0cbf
00000190: 2960 02bf 1e0b 38bf 5a17 83be 60d3 8cbf
000001a0: 6a68 20be 9886 76bf 0463 58bd 36b7 8dbf
000001b0: 179a 22bf 1066 3fbe f255 04bf 34e0 e4be
000001c0: ae41 aebe 3be9 0ebf fe4a 90be c811 28bf
000001d0: 63f7 76bd 9375 41bf ccb7 f43c 8d5e 63bf
000001e0: 0dec d73d 9a40 a2bf ec4d 933e e571 9abf
000001f0: 744c fb3e 7a2d abbf a6a8 d2be eff0 bebf
00000200: ced0 48be 61cf d0bf aaf3 95bd a6b5 cebf
00000210: a3f7 43bf 9fac d2bf b281 11bf 504a d6bf
00000220: faff 9ebf 5b9a 8c3f 8e92 5abf bb42 823f
00000230: d71e 81bf 0a74 203f aad2 2ebf 36a0 a23f
00000240: 9c47 59bf 68e4 d03e 5ba2 dcbe 6dad 8c3f
00000250: c240 a2bd 15fd df3f a600 8d3c 6d4b b03f
00000260: 121d 2c3e 72d8 d63f fc99 5cbe 9e7a 243f
00000270: e6e9 99bd 412c 443f 07b4 213e f01e 9c3f
00000280: 010e a63e d7ae c73f 7995 3e3e 1092 723f
00000290: 72b5 f3bd 5ae6 cb3e 50c3 923a d728 f03e
000002a0: 6787 653e f6ed 423f 6c33 de3e 16eb 8a3f
000002b0: eb1b 113f 66e1 a53f 7e70 a53e ee39 283f
000002c0: 9505 f23e 4937 6a3f 8ffc 803e 1265 c03e
000002d0: 572a be3e fa74 143f a23d 093f 142c 4a3f
000002e0: c199 2f3f 31b7 823f 4998 d33e f5c7 f03e
000002f0: 5938 433f 4981 6f3f 4506 6f3e 814d e53d
00000300: ee96 ed3e 82d6 cd3e 7992 233f 2ec9 263f
00000310: b304 543f 690d 453f 002c b33e b6be 833d
00000320: 0ece 0f3f ba71 8a3e 8f42 6a3f a594 143f
00000330: 9ec8 963f 5c2f 6b3f 0a47 283f 47d0 303e
00000340: ddeb 7b3f a63a 0a3f 507e a13f 4ef4 483f
00000350: 74ec 353f 229e 323d 0926 8c3f c772 d53e
00000360: f2b9 783f f4ed 1c3e d05d 8e3f 5525 a53e
00000370: 2776 b93f a2d3 193f eb39 863f 6ba6 ae3d
00000380: e12e 533f d94f d9bd b956 9e3f 71f5 6e3e
00000390: fd3c b43f 67b0 2e3e 7465 c83f 77d5 9a3e
000003a0: 7a88 d73f 74c8 c83e e2ae f23f c162 1b3f
000003b0: f618 a13f d1b6 e8bd 6651 0340 b209 063f
000003c0: a4a5 ec3f 2387 933e 6e64 8f3f 56e2 99be
000003d0: 98d2 a6bf 5575 d63f 2ad3 50bf 975a c33f
000003e0: 3a14 f1be 73c5 df3f 8f22 f7be b2d6 b13f
000003f0: 9918 a6be 071c c93f dc89 46be b325 aa3f

weight f4 [250, 2]
-0.10067344 -0.7428021 -0.55679584 -0.49511728 0.46752986 0.42154998 -0.28084233 -0.48695886
0.081415325 0.13357052 -0.005964303 -0.0012620792 -0.64982593 0.28659755 0.36027038 0.3830306
-0.9856481 0.1431195 0.2536976 0.16807386 0.7540876 -0.6112407 -0.7425357 -0.6096088
-0.776416 -0.7861956 -0.2559284 0.5012923 0.018746942 0.4922551 0.20659241 0.35305643
0.74768037 0.8160991 -0.72773546 -0.66635793 0.056197803 -0.034027707 -0.009199171 0.18602046
-0.7416981 0.0012144699 0.40362337 -0.3822502 -0.60546976 0.0011082883 0.33517814 0.23548716
0.36626652 -0.07729469 -0.22823142 -0.8197634 -0.16276768 -0.7008309 -0.40635535 -0.60553557
-0.095403075 0.37009937 0.08617672 -0.0880586 -0.83559424 -0.36441186 -0.83216256 -0.59618026
-0.10923011 0.7397067 0.56345695 -0.47972924 -0.63798106 -0.6174408 0.0022539126 -0.0010905374
0.7482469 -0.26314855 0.6801755 0.64004606 0.6151271 0.6992488 0.15598127 -0.70864594
0.05000201 -0.50829554 0.49406555 -0.252862 0.03910309 0.15374734 -0.39318132 0.7247994
-0.8766616 -0.15511826 -0.68441194 -0.37790638 -0.27520224 0.7379305 -0.113177076 0.5954096
-0.7527598 0.00810203 0.35005373 0.18334973 -0.3385248 -0.38147855 -0.14916001 0.31061947
-0.7629772 0.79064536 -0.73613834 0.015540293 0.20162958 0.81455314 0.17673516 0.26219517
-0.4283804 -0.5172664 0.33862188 0.34815598 0.32700205 0.009611389 -0.10059913 -0.024654914
-0.68766004 0.5654861 0.5643906 -0.2486904 -0.8050846 0.48260728 0.07664282 -0.1280983
-1.0250093 -0.88474375 0.16620995 0.4476062 -0.70575047 -0.49982733 -0.52232015 0.6090643
-0.70486873 0.47471756 0.38013336 0.6080142 -0.50891304 -0.48077884 0.27486345 -0.6897284
-0.11822281 0.09939835 -0.5364908 -0.7536767 -0.007482704 -0.015291726 -0.6980477 0.58513916
-0.85031444 0.33301014 0.3138224 0.15031464 -0.09980777 -0.846497 -0.1028089 0.7106826
-0.15317008 0.37745908 -0.852518 -0.48146296 -0.31553954 0.31022382 -0.22605689 -1.0681552
0.21944584 -0.5860301 0.34978327 -0.6296207 0.18442766 0.17961507 -0.0945326 0.3141069
-0.11327443 0.56480885 -0.52719563 -0.61480623 -1.0364672 0.12040562 -0.5216773 0.054822553
-0.7668947 0.28951532 -0.45503125 -0.5704514 -0.8030862 -0.8243668 0.32488123 0.56147623
0.7058642 -0.52060527 -0.4292032 -0.5678782 0.21761626 -0.18353082 0.04888617 0.52833265
0.23502044 -0.008348574 -0.06362248 0.6081978 -1.1081318 0.23177081 0.31035236 -0.4838679
-0.53582555 -0.7017792 -0.7165898 0.4030505 -0.55547243 -0.10885704 -0.5413293 0.19833474
-0.594223 0.7349427 -0.4739818 -0.70958453 -0.6642317 -0.5768304 -0.5339733 -0.86147505
0.04029195 -0.021569999 -0.68410236 -0.5599524 0.11433273 0.42765284 0.40703914 -0.30763403
-0.028188808 0.45955798 0.863745 0.040818084 0.4773156 -0.6176551 0.8001471 0.02544464
0.34662762 0.08528633 0.46905673 0.5655692 0.5724596 -0.16465028 0.6396514 0.716415
-0.7970769 0.005415388 0.6464181 -0.57486284 -0.2525327 -0.3115444 -0.09425972 -0.57917917
00000000: e02d cebd 4728 3ebf 2c8a 0ebf 0380 fdbe
00000010: 1360 ef3e 66d5 d73e 91ca 8fbe ac52 f9be
00000020: 14bd a63d b6c6 083e 3370 c3bb 5a6c a5ba
00000030: fe5a 26bf eabc 923e 5c75 b83e 961c c43e
00000040: 6f53 7cbf eb8d 123e a7e4 813e 8e1b 2c3e
00000050: e30b 413f 457a 1cbf d216 3ebf 530f 1cbf
00000060: 33c3 46bf 1d44 49bf 0c09 83be b154 003f
00000070: 3093 993c dc08 fc3e f68c 533e d0c3 b43e
00000080: fb67 3f3f dfeb 503f df4c 3abf 6f96 2abf
00000090: ab2f 663d a360 0bbd 1fb8 16bc 267c 3e3e
000000a0: eddf 3dbf d92e 9f3a b9a7 ce3e 4cb6 c3be
000000b0: 1100 1bbf fc43 913a 789c ab3e 8c23 713e
000000c0: 4987 bb3e ae4c 9ebd 7fb5 69be 04dc 51bf
000000d0: 92ac 26be a769 33bf cf0d d0be 6104 1bbf
000000e0: b062 c3bd aa7d bd3e 6c7d b03d 1158 b4bd
000000f0: 81e9 55bf 3194 babe 9b08 55bf 459f 18bf
00000100: 09b4 dfbd 6b5d 3d3f b73e 103f 129f f5be
00000110: ba52 23bf 9a10 1ebf 61b6 133b 5df0 8eba
00000120: 1c8d 3f3f 68bb 86be fb1f 2e3f 0fda 233f
00000130: f878 1d3f f801 333f 8eb9 1f3e d269 35bf
00000140: e8ce 4c3d a81f 02bf 29f6 fc3e 2177 81be
00000150: 902a 203d f16f 1d3e 104f c9be 748c 393f
00000160: e56c 60bf 52d7 1ebe 9f35 2fbf f27c c1be
00000170: 4fe7 8cbe 03e9 3c3f 62c9 e7bd c36c 183f
00000180: deb4 40bf 60be 043c 3e3a b33e 08c0 3b3e
00000190: 1f53 adbe 2851 c3be 67bd 18be 8409 9f3e
000001a0: 7952 43bf bc67 4a3f 9073 3cbf b79c 7e3c
000001b0: fc77 4e3e 8e86 503f 10fa 343e 723e 863e
000001c0: ad54 dbbe 926b 04bf d95f ad3e 8041 b23e
000001d0: d06c a73e 1679 1d3c eb06 cebd 1af9 c9bc
000001e0: 7d0a 30bf b2c3 103f e77b 103f b2a8 7ebe
000001f0: 061a 4ebf 4d18 f73e e9f6 9c3d 332c 03be
00000200: 8133 83bf 917e 62bf f132 2a3e a42c e53e
00000210: 10ac 34bf 5ee9 ffbe c6b6 05bf a3eb 1b3f
00000220: 4772 34bf 2e0e f33e d7a0 c23e d2a6 1b3f
00000230: 2048 02bf a528 f6be e7ba 8c3e 0a92 30bf
00000240: cd1e f2bd 5d91 cb3d 7657 09bf f5f0 40bf
00000250: 7831 f5bb 268a 7abc 41b3 32bf aecb 153f
00000260: 35ae 59bf 4e80 aa3e 54ad a03e 15ec 193e
00000270: 0468 ccbd 07b4 58bf 798d d2bd 4bef 353f
00000280: 9ed8 1cbe 5142 c13e 9f3e 5abf 5082 f6be
00000290: 668e a1be a8d5 9e3e 757b 67be 4fb9 88bf
000002a0: 69b6 603e 1206 16bf cb16 b33e d22e 21bf
000002b0: 9bda 3c3e 03ed 373e 4f9a c1bd 9fd2 a03e
000002c0: 6dfc e7bd 5097 103f 4bf6 06bf f163 1dbf
000002d0: f5aa 84bf 3997 f63d a58c 05bf 9d8d 603d
000002e0: 3653 44bf 5a3b 943e dbf9 e8be 1a09 12bf
000002f0: 0f97 4dbf b409 53bf d556 a63e e8bc 0f3f
00000300: 84b3 343f 6346 05bf 86c0 dbbe 7760 11bf
00000310: ccd6 5e3e 81ef 3bbe dd3c 483d cf40 073f
00000320: 33a9 703e 75c8 08bc 814c 82bd dab2 1b3f
00000330: 43d7 8dbf 5455 6d3e 81e6 9e3e 89bd f7be
00000340: dd2b 09bf cda7 33bf 6e72 37bf a35c ce3e
00000350: 7133 0ebf 71f0 debd 8f94 0abf 4318 4b3e
00000360: 001f 18bf 3425 3c3f bead f2be 55a7 35bf
00000370: 170b 2abf 28ab 13bf 79b2 08bf a189 5cbf
00000380: 2c09 253d 91b3 b0bc 5521 2fbf 0a59 0fbf
00000390: 4727 ea3d 50f5 da3e 6f67 d03e 3582 9dbe
000003a0: 37ec e6bc 2f4b eb3e 641e 5d3f dd30 273d
000003b0: b662 f43e a51e 1ebf 71d6 4c3f 4771 d03c
000003c0: 2d79 b13e 99aa ae3d 3428 f03e 25c9 103f
000003d0: b68c 123f 159a 28be 32c0 233f f966 373f
000003e0: 3b0d 4cbf 9173 b13b a87b 253f 362a 13bf
000003f0: f74b 81be bf82 9fbe 3d0b c1bd 1645 14bf
